word2vec/training_weight.npy (npy, 692928 bytes, 1 tensors)

array f8 [100, 866]
000000 4d c6 0a 5d cb 27 dd bf ac ed 29 7e 1c 7a db 3f
       -0.45555385671750487 0.4293280822818939
000010 05 98 de 8c 60 b3 b1 bf d5 07 76 51 78 1a ed 3f
       -0.06914332808682395 0.9094812003170271
000020 18 46 8f 9a f8 27 c2 bf f8 33 7d 97 2b d6 ce bf
       -0.14184482142313537 -0.240910958260798
000030 91 f6 03 43 5b cf b2 bf 10 83 93 dd d2 01 d9 3f
       -0.07347650896186965 0.3907363094167957
000040 61 05 39 8d 23 91 e6 3f c4 2c e2 cc 02 ad d0 3f
       0.7052171476608856 0.2605597496810328
000050 50 62 f6 f1 b5 09 d3 3f d5 60 44 18 c8 95 cd 3f
       0.29746769551414776 0.23113347229878536
000060 8b 35 58 52 0e 2b e5 bf 84 b7 85 74 e0 d4 e5 bf
       -0.6615058525364231 -0.682235934813193
000070 cb 3c 32 74 46 54 d4 3f 41 12 40 63 da 82 99 bf
       0.3176437506417186 -0.024913227374798067
000080 b6 a2 fa 3f ff 66 ab 3f a5 0a 2b 07 b0 cf e3 bf
       0.05352018028253751 -0.6191024913790285
000090 5b 49 07 c4 c1 43 e5 3f 5f 60 b9 0b 06 07 e8 3f
       0.664521105640499 0.750857375048337
0000a0 83 13 a0 4d ae 4c d7 3f 5b 3f b6 80 66 ed e5 3f
       0.3640552290019558 0.6852295411972408
0000b0 25 1c 34 13 d2 3c be 3f 68 09 da 64 8a 1c e4 bf
       0.11811554879032878 -0.6284839601287731
0000c0 27 33 38 5b 34 9a e0 3f cf 8d 20 e9 42 12 bc bf
       0.5188237935668426 -0.10965364638882778
0000d0 5d f9 8c e2 b2 e6 eb bf 1a 15 76 9e af c5 eb bf
       -0.8719114708726853 -0.8678815932222819
0000e0 ec 52 ca c7 46 34 a5 bf 28 df 35 5f 15 3a dd 3f
       -0.041414462936847446 0.45667013452428984
0000f0 6f fa bd 74 6a d0 e0 3f db 5c e6 b4 e5 6a d1 bf
       0.5254413871878806 -0.27214949289323237
000100 41 9f b5 55 88 5b cf bf d8 e8 e7 ac b8 00 b9 3f
       -0.24498085198433198 0.09766725751242988
000110 b5 3b 64 a3 1f 5b d6 3f 48 bf d2 37 2c 25 e4 3f
       0.3493117423649282 0.6295376863763318
000120 7b df 95 74 be ad e6 3f 52 1f 9b 22 76 be e1 3f
       0.7087089802798653 0.5544996906182666
000130 3c 89 d6 fa 32 16 d8 3f db 40 fa 32 bf 83 e2 bf
       0.3763549279775764 -0.578582381787807
000140 d5 b3 78 07 7a a8 e6 bf 3f 7d ec 07 ab 28 ae 3f
       -0.7080660005500429 0.058904022900828405
000150 f6 5a cb e6 37 bc b2 bf 04 b5 ec 61 3e 0f aa bf
       -0.07318448433521127 -0.05089755006188493
000160 64 69 0d 32 44 45 db bf 18 7e 6f 12 63 7e cf bf
       -0.42610268485954905 -0.24604452514812247
000170 93 7d d0 5c 2c 74 b5 3f 6a 25 1e 55 33 e6 d2 3f
       0.08380391374566036 0.29530032455712407
000180 4c 65 db 9e 31 c7 dd bf 6f 39 df c0 c3 79 e0 3f
       -0.46528282655124964 0.5148638503103892
000190 08 37 d9 de a9 85 d9 bf 29 0c 90 5c 4d da a1 bf
       -0.39878317606495317 -0.03486863856235118
0001a0 18 4d ff e8 6b c0 e1 bf e9 13 41 40 3d 71 c9 3f
       -0.5547389555671627 0.19876828801548577
0001b0 9b 26 36 6b 45 04 e1 3f 1e 3f b2 39 6e 96 d2 3f
       0.5317713827109459 0.2904315532150451
0001c0 bd f9 d5 28 6c 9d e3 bf bc b2 80 05 02 5e d3 3f
       -0.6129666135382689 0.30261278664947233
0001d0 8e 02 e8 5c e4 cd d0 3f b7 f7 12 1e ad 58 d7 bf
       0.2625666529930094 -0.36478736817286567
0001e0 28 41 b7 44 9a ca b3 bf ca 0c 84 5f 62 0e db 3f
       -0.07731022050507319 0.4227529461642915
0001f0 f2 21 c5 b2 14 51 e8 3f 28 b7 5c b4 30 67 d9 3f
       0.7598975650408291 0.39692323316090716
000200 a4 99 ac 63 75 fd e0 3f d4 62 91 48 05 b1 e1 bf
       0.530939764667711 -0.5528589646665645
000210 b2 23 b5 e1 60 4b c8 3f 09 53 79 25 91 f4 e4 3f
       0.18980036755445223 0.6548543674385608
000220 f6 fa b9 ee 3d 9c 93 3f 2c 9f d7 6a c7 09 ba bf
       0.01915070313998065 -0.10171171530202788
000230 ad 44 3d f4 ed 41 d5 3f 27 3b 66 d1 cc 5d e4 3f
       0.3321490178250979 0.6364502038794385
000240 14 2b 17 fb 50 8c d3 3f 96 ae 0e d5 63 68 e0 bf
       0.30543922920758004 -0.5127429162289043
000250 07 4d fb 5b cc 40 ab bf b2 a0 6d 20 2f fc d3 bf
       -0.05322874663183979 -0.31226709524936347
000260 75 26 3d 10 7f f5 b6 3f b1 62 bb 3c f2 62 cc bf
       0.08968347689110508 -0.2217695995848508
000270 9e 72 92 39 8b dd e9 bf 18 c7 55 05 66 e9 e0 3f
       -0.8082939266638112 0.5284910301399774
000280 68 85 67 e7 68 4a d6 3f d8 11 ba e7 c8 25 c0 bf
       0.34829161260684893 -0.12615310015475134
000290 69 bf 55 16 43 de d3 3f 73 16 d4 47 d7 9c e2 bf
       0.31044079953334475 -0.5816456225299603
0002a0 34 b1 f5 89 58 0c df bf b5 56 91 d1 b1 a4 de 3f
       -0.4851285311949767 0.4788021608886582
0002b0 b2 cb c8 4c ea 26 ea 3f bb f9 da bf 31 35 dd bf
       0.8172503947920318 -0.456371724470866
0002c0 66 3e 70 74 59 64 c2 3f 9a 22 82 0d d5 b3 e7 3f
       0.14368742166014953 0.7407021774134421
0002d0 f0 28 da c3 20 0b de bf e7 d1 3a c0 df 7f 82 3f
       -0.46942919851484444 0.009032962850462801
0002e0 eb db 48 ae 30 85 e3 3f d0 1c e0 7a 3f 24 cc 3f
       0.6100085643764691 0.2198562002160771
0002f0 69 da 16 05 a6 1f 5a bf 25 5a e0 2e 7d d2 ca bf
       -0.0015944596565141916 -0.2095486143959572
000300 e4 c4 1c 98 b6 6e d6 3f 02 81 5e 57 23 fa d8 3f
       0.3505074010345892 0.39026721508163587
000310 9c a0 dd 60 d5 b0 cf bf 6b 8a 52 da 27 f9 d3 3f
       -0.24758403043529575 0.3120822555594375
000320 d6 3b 3a b1 2e d5 ce bf c6 45 d0 45 a8 6f bc bf
       -0.24088081029591873 -0.11107875542099696
000330 a5 79 f8 fe 3e 37 bf 3f a9 57 04 8b d5 17 e4 bf
       0.12193673825138392 -0.6279094424414683
000340 0a ad 02 61 e4 e1 de 3f 0a ec 6e 50 94 f7 e3 3f
       0.4825373599403099 0.62397208890559
000350 13 bb ce e4 57 a1 e7 3f 4a bc de 15 26 4f a7 bf
       0.7384452313325219 -0.04552573220222962
000360 9d 53 29 8a 1f a2 e3 bf db 79 a9 f5 85 74 b8 3f
       -0.6135404299226256 0.09552800414665034
000370 fe 2c a0 ab 64 a0 c3 3f 9e 3c 86 61 63 33 d2 bf
       0.1533323133483932 -0.2843864872347214
000380 b4 78 b4 91 b1 fb da 3f 13 0f 01 1d 29 33 e7 bf
       0.4216121600055758 -0.7249951902854
000390 4a a9 4a 13 24 5d d6 3f 61 8f b7 7b b5 30 da bf
       0.34943487056684275 -0.4092229564832817
0003a0 d1 b9 53 b5 95 4f e1 bf 60 c2 c8 d9 7f bd 9f bf
       -0.54096494117203 -0.030996320407384537
0003b0 37 09 27 77 3b 2d c7 3f 82 1d d4 21 47 55 8b bf
       0.18106787984840775 -0.013346248359552563
0003c0 65 98 9e f6 5e d6 ca bf 8f ff d1 14 07 df d4 3f
       -0.2096670822331276 0.3261125281642245
0003d0 2d 00 ff 6e 91 98 e4 bf a4 95 a0 04 e1 2b e3 bf
       -0.6436240356342801 -0.5991063204170826
0003e0 86 11 49 8f 59 f9 d1 3f 54 e4 f7 08 80 98 c9 bf
       0.2808441066047397 -0.19996643484026555
0003f0 4c a7 de 0f c7 df d5 3f f9 9b 87 4f 77 e2 e5 bf
       0.34178329992083856 -0.6838947823824802
000400 db af a4 ea 91 a5 dc bf 73 1c 06 08 b0 7c e7 bf
       -0.44760559000382977 -0.7339706570354693
000410 2f 5b e3 01 d1 ab e4 bf 7e 2c bc 55 8c 8b df 3f
       -0.6459736859204436 0.49289234516681535
000420 e9 93 dd 81 3a 6a dc bf 40 c8 03 fb 62 bb a3 bf
       -0.44398367578679526 -0.03853902162690348
000430 39 09 aa 92 cf 67 d4 3f c7 23 8e 5f 97 4a e4 bf
       0.3188361103313074 -0.6341053835213807
000440 2b 72 35 74 c6 a0 c2 3f ae bc 44 88 f0 57 d8 bf
       0.14553147005325803 -0.3803674059626684
000450 9b f5 16 e8 ca 39 b4 bf 0b 0c 48 c5 f9 5a aa 3f
       -0.0790068451523979 0.05147533925266864
000460 85 73 e5 28 09 0e e4 3f 31 86 fc 32 ac 8c d6 3f
       0.6267133520847074 0.35233597735541183
000470 cc f2 e0 61 7e 89 e8 3f 92 6d 41 fe 90 98 e3 bf
       0.7667838966077283 -0.6123738256387006
000480 31 07 19 94 1b 6e a3 3f 80 ab 1e a7 56 17 d6 3f
       0.037949430301991056 0.3451744682339992
000490 09 39 83 3a b5 46 da bf 30 9b 7e 43 8a 50 e0 3f
       -0.41056566919441245 0.5098315542462384
0004a0 c9 10 02 47 0a e1 d8 3f 4c 2e fb fb 56 11 d2 3f
       0.3887353604734583 0.28230833632980956
0004b0 e6 82 2a 31 0f 21 e5 3f f8 f1 f3 b2 76 a2 de bf
       0.6602855644487959 -0.4786659953677197
0004c0 a0 b2 d6 d3 07 24 b0 3f 6b b6 fa 0d 62 9a d6 bf
       0.06304978296129571 -0.35317279210253244
0004d0 b9 4c ef 96 04 23 dc 3f 7a ea 98 0d 4c 28 da bf
       0.43963732471201983 -0.4087095387255101
0004e0 19 a5 d6 c7 4f 23 e2 bf 2c 60 d6 cd 5b 3e d3 3f
       -0.56681050330113 0.3006810674792202
0004f0 54 02 fa 85 b3 89 b2 3f 5a 2c b0 28 94 d2 e6 3f
       0.07241365452683485 0.7132054133120491
000500 bf c5 3f cd 0d 01 c8 3f f7 b8 90 d0 df 69 d6 3f
       0.18753216287545446 0.3502120529909826
000510 d3 67 d0 f1 9c 01 d8 bf b7 69 b4 a9 db bf e0 3f
       -0.37509845366150535 0.5234201731248537
000520 fb 3b d9 63 89 64 c3 bf da 6e 72 aa 8a 2d ec bf
       -0.1515056359807828 -0.8805592850726172
000530 a7 f6 a3 8d c6 ab e8 bf 50 f4 f6 cb f3 c3 dc 3f
       -0.7709687010207816 0.449459981140369
000540 1b 18 48 11 79 48 b7 bf a6 cf 50 f4 6a 92 ba 3f
       -0.09094959899820802 0.10379665817964553
000550 6f 50 3c a7 ab fc c5 bf f2 51 58 1d 48 09 e6 bf
       -0.17177339235115904 -0.6886330197472132
000560 09 b7 2e 94 52 f2 e1 3f 8b 0f d9 83 f5 a5 d3 bf
       0.560830392283351 -0.30700433612604944
000570 0d 1c 18 83 f1 08 93 3f f1 8c 68 11 90 20 d3 3f
       0.01858880388865818 0.2988624734882271
000580 64 29 ff 8d 80 c4 da bf 4e c8 2a 22 ec 91 c8 3f
       -0.4182435404478808 0.19195319813076356
000590 49 aa 3c c6 c6 7b db 3f e2 97 85 97 12 52 cf bf
       0.4294297157199805 -0.24469215773132108
0005a0 a0 0a b8 05 32 e2 e4 3f 09 d7 d0 50 64 3f e7 bf
       0.6526117431352141 -0.7264882639344431
0005b0 b9 60 f7 50 f9 3d df 3f 40 af 84 52 74 12 b2 3f
       0.48815758616320754 0.07059409155470764
0005c0 6f 91 b0 b1 51 0d d2 bf ae 55 ea 01 91 da ce 3f
       -0.28206293442260394 0.24104511827014846
0005d0 de ef 80 13 52 69 e7 3f 06 17 9e db 1b 03 ca bf
       0.7316065197878705 -0.2032198736525787
0005e0 29 a7 4b 87 81 ff e1 3f 12 92 45 28 11 06 a7 bf
       0.5624396936884511 -0.044968162694918004
0005f0 d8 50 45 f7 d8 d3 d8 bf 19 c0 a4 5e bb 51 c9 3f
       -0.38793014667068126 0.1978067600371112
000600 8f 9f d0 9f a3 93 e5 3f 1c 16 42 a8 cc 88 e4 bf
       0.6742723580728 -0.6416991506855001
000610 94 9b 77 3e 8a 9a d8 bf 4b b9 21 18 0b 80 d5 bf
       -0.384432374003546 -0.3359401450787984
000620 8f ae e2 68 7a ad a3 3f 2d e5 63 72 48 b5 d3 bf
       0.038432908347514 -0.3079396359531355
000630 31 05 90 d0 fc f7 d6 bf 95 46 93 a7 1d a4 cb bf
       -0.35888595931472184 -0.2159459179152249
000640 5e 9e 33 ff 9d bd c2 3f 5f b4 4d e2 36 08 e6 3f
       0.14641165696160646 0.6885027332297219
000650 17 37 fc ee c3 c1 ea 3f e4 5b c2 91 5c 3d df 3f
       0.8361529987030022 0.4881202147893744
000660 9e 28 c8 96 09 84 d3 bf 71 ae 4d 90 f6 d3 e1 3f
       -0.3049339268187711 0.5571244066645261
000670 c8 ec fc fa 10 68 b8 3f e2 d4 0b 17 b1 e2 c3 bf
       0.0953379261745112 -0.1553555834322316
000680 1f bf d7 d1 93 94 d7 3f 23 8d ac 62 1f 17 e5 3f
       0.36844344608742746 0.659072582934105
000690 06 c3 5e cb 9a 9f d7 3f ab 7f 5a f5 c6 38 dc 3f
       0.36911649570815575 0.44096540413192525
0006a0 0f 1e ff 4e d7 c3 e2 3f 39 5f 55 89 e2 96 d7 3f
       0.5864063780690588 0.36858428393815107
0006b0 62 0d 57 bc b4 3d d8 bf 9e 9b a8 27 85 f4 d7 3f
       -0.37876623528082665 0.3742993247309928
0006c0 45 db 79 88 57 06 a3 bf 43 0b 83 10 65 7d d6 bf
       -0.03715776005713293 -0.3514034901856357
0006d0 9a d8 d0 82 84 44 b8 bf 22 ec 5d 4c 7c 27 dc 3f
       -0.09479549592728845 0.43991000611976194
0006e0 a9 a7 ae b7 e3 68 b7 3f 3a 81 31 66 fd f6 d4 bf
       0.09144423708371953 -0.3275750635130127
0006f0 20 b2 63 6f ee 57 d4 3f db 0c b5 c1 94 a6 c2 3f
       0.31786690595507316 0.1457086511455604
000700 6c c5 14 35 33 2c d5 3f 88 87 b7 7f 3e 1a b2 3f
       0.33082275565819574 0.07071295374001185
000710 0f f2 4e 30 c1 02 d2 3f 9c 53 a6 4a e2 eb d9 3f
       0.2814181300889524 0.4050222138405901
000720 fa 0a 31 06 3d a5 ba 3f 1b ff 67 7f 6c af dd 3f
       0.1040838375202319 0.46383202020659703
000730 08 19 ed 6d cf b7 97 3f 4c 4a bf ab 83 c1 db bf
       0.023162118038521334 -0.43368617794218234
000740 e0 08 e3 3f 1f cf d8 3f 86 c2 99 05 1d 3f c0 3f
       0.38764172781897166 0.12692606709926596
000750 38 f1 eb 10 67 a3 e1 bf 8d b3 a5 df 17 2e e6 bf
       -0.5511966066838232 -0.6931266182051431
000760 a6 6e c4 4a 94 4c ca 3f a8 73 34 75 8e 0b e4 bf
       0.2054620137285969 -0.6264107026250842
000770 5b 13 b3 97 52 61 de bf 2f d5 f4 bf e5 ff cf bf
       -0.47469010176091836 -0.24999687073583618
000780 38 33 b9 ef 98 ee c5 bf 6a 56 57 e1 5c 13 d0 bf
       -0.17134391503568636 -0.2511818123433388
000790 ba 61 f8 43 2a 19 dc bf 0d 1d 74 28 d5 41 e9 bf
       -0.4390359557887923 -0.78928621197784
0007a0 c2 7e cf 43 db fa d5 bf df 5d 74 28 32 3e dc 3f
       -0.3434360658847987 0.4412961382926976
0007b0 95 89 8f 0c 09 17 e4 bf 50 96 9d 38 65 d5 e3 bf
       -0.6278119321180379 -0.6197992425702044
0007c0 76 87 be c7 f8 7f e9 bf a0 4a d2 aa 3f 6e e1 bf
       -0.796871557355401 -0.5447080932957142
0007d0 a5 b5 49 fd 88 19 d7 3f a1 88 9c ea 8f 25 e8 bf
       0.36093353972577297 -0.7545852262740206
0007e0 2a f0 17 9b 9b a2 e4 bf 57 26 ea 48 53 50 db bf
       -0.6448495892686925 -0.4267776691491227
0007f0 bc 28 5c e1 6e eb e3 bf d7 d3 c2 58 32 4c c0 3f
       -0.6224893952906068 0.12732533773455998
